<?xml version="1.0"?>
<net name="TensorFlow_Frontend_IR" version="11">
	<layers>
		<layer id="0" name="args:0" type="Parameter" version="opset1">
			<data shape="1,32,32,3" element_type="f32" />
			<output>
				<port id="0" precision="FP32" names="args:0">
					<dim>1</dim>
					<dim>32</dim>
					<dim>32</dim>
					<dim>3</dim>
				</port>
			</output>
		</layer>
		<layer id="1" name="Constant_66" type="Const" version="opset1">
			<data element_type="i64" shape="4" offset="0" size="32" />
			<output>
				<port id="0" precision="I64">
					<dim>4</dim>
				</port>
			</output>
		</layer>
		<layer id="2" name="Transpose_67" type="Transpose" version="opset1">
			<input>
				<port id="0" precision="FP32">
					<dim>1</dim>
					<dim>32</dim>
					<dim>32</dim>
					<dim>3</dim>
				</port>
				<port id="1" precision="I64">
					<dim>4</dim>
				</port>
			</input>
			<output>
				<port id="2" precision="FP32">
					<dim>1</dim>
					<dim>3</dim>
					<dim>32</dim>
					<dim>32</dim>
				</port>
			</output>
		</layer>
		<layer id="3" name="Multiply_3323_compressed" type="Const" version="opset1">
			<data element_type="f16" shape="64, 3, 7, 7" offset="32" size="18816" />
			<output>
				<port id="0" precision="FP16">
					<dim>64</dim>
					<dim>3</dim>
					<dim>7</dim>
					<dim>7</dim>
				</port>
			</output>
		</layer>
		<layer id="4" name="Multiply_3323" type="Convert" version="opset1">
			<data destination_type="f32" />
			<rt_info>
				<attribute name="decompression" version="0" />
			</rt_info>
			<input>
				<port id="0" precision="FP16">
					<dim>64</dim>
					<dim>3</dim>
					<dim>7</dim>
					<dim>7</dim>
				</port>
			</input>
			<output>
				<port id="1" precision="FP32">
					<dim>64</dim>
					<dim>3</dim>
					<dim>7</dim>
					<dim>7</dim>
				</port>
			</output>
		</layer>
		<layer id="5" name="Multiply_3181" type="Convolution" version="opset1">
			<data strides="2, 2" dilations="1, 1" pads_begin="0, 0" pads_end="0, 0" auto_pad="same_upper" />
			<input>
				<port id="0" precision="FP32">
					<dim>1</dim>
					<dim>3</dim>
					<dim>32</dim>
					<dim>32</dim>
				</port>
				<port id="1" precision="FP32">
					<dim>64</dim>
					<dim>3</dim>
					<dim>7</dim>
					<dim>7</dim>
				</port>
			</input>
			<output>
				<port id="2" precision="FP32">
					<dim>1</dim>
					<dim>64</dim>
					<dim>16</dim>
					<dim>16</dim>
				</port>
			</output>
		</layer>
		<layer id="6" name="Constant_3186_compressed" type="Const" version="opset1">
			<data element_type="f16" shape="1, 64, 1, 1" offset="18848" size="128" />
			<output>
				<port id="0" precision="FP16">
					<dim>1</dim>
					<dim>64</dim>
					<dim>1</dim>
					<dim>1</dim>
				</port>
			</output>
		</layer>
		<layer id="7" name="Constant_3186" type="Convert" version="opset1">
			<data destination_type="f32" />
			<rt_info>
				<attribute name="decompression" version="0" />
			</rt_info>
			<input>
				<port id="0" precision="FP16">
					<dim>1</dim>
					<dim>64</dim>
					<dim>1</dim>
					<dim>1</dim>
				</port>
			</input>
			<output>
				<port id="1" precision="FP32">
					<dim>1</dim>
					<dim>64</dim>
					<dim>1</dim>
					<dim>1</dim>
				</port>
			</output>
		</layer>
		<layer id="8" name="Transpose_793" type="Add" version="opset1">
			<data auto_broadcast="numpy" />
			<input>
				<port id="0" precision="FP32">
					<dim>1</dim>
					<dim>64</dim>
					<dim>16</dim>
					<dim>16</dim>
				</port>
				<port id="1" precision="FP32">
					<dim>1</dim>
					<dim>64</dim>
					<dim>1</dim>
					<dim>1</dim>
				</port>
			</input>
			<output>
				<port id="2" precision="FP32">
					<dim>1</dim>
					<dim>64</dim>
					<dim>16</dim>
					<dim>16</dim>
				</port>
			</output>
		</layer>
		<layer id="9" name="Transpose_795" type="ReLU" version="opset1">
			<input>
				<port id="0" precision="FP32">
					<dim>1</dim>
					<dim>64</dim>
					<dim>16</dim>
					<dim>16</dim>
				</port>
			</input>
			<output>
				<port id="1" precision="FP32">
					<dim>1</dim>
					<dim>64</dim>
					<dim>16</dim>
					<dim>16</dim>
				</port>
			</output>
		</layer>
		<layer id="10" name="MaxPool_79" type="MaxPool" version="opset8">
			<data strides="2, 2" dilations="1, 1" pads_begin="0, 0" pads_end="0, 0" kernel="2, 2" rounding_type="floor" auto_pad="same_upper" index_element_type="i64" axis="0" />
			<input>
				<port id="0" precision="FP32">
					<dim>1</dim>
					<dim>64</dim>
					<dim>16</dim>
					<dim>16</dim>
				</port>
			</input>
			<output>
				<port id="1" precision="FP32">
					<dim>1</dim>
					<dim>64</dim>
					<dim>8</dim>
					<dim>8</dim>
				</port>
				<port id="2" precision="I64">
					<dim>1</dim>
					<dim>64</dim>
					<dim>8</dim>
					<dim>8</dim>
				</port>
			</output>
		</layer>
		<layer id="11" name="Multiply_3327_compressed" type="Const" version="opset1">
			<data element_type="f16" shape="64, 64, 3, 3" offset="18976" size="73728" />
			<output>
				<port id="0" precision="FP16">
					<dim>64</dim>
					<dim>64</dim>
					<dim>3</dim>
					<dim>3</dim>
				</port>
			</output>
		</layer>
		<layer id="12" name="Multiply_3327" type="Convert" version="opset1">
			<data destination_type="f32" />
			<rt_info>
				<attribute name="decompression" version="0" />
			</rt_info>
			<input>
				<port id="0" precision="FP16">
					<dim>64</dim>
					<dim>64</dim>
					<dim>3</dim>
					<dim>3</dim>
				</port>
			</input>
			<output>
				<port id="1" precision="FP32">
					<dim>64</dim>
					<dim>64</dim>
					<dim>3</dim>
					<dim>3</dim>
				</port>
			</output>
		</layer>
		<layer id="13" name="Multiply_3188" type="Convolution" version="opset1">
			<data strides="1, 1" dilations="1, 1" pads_begin="0, 0" pads_end="0, 0" auto_pad="same_upper" />
			<input>
				<port id="0" precision="FP32">
					<dim>1</dim>
					<dim>64</dim>
					<dim>8</dim>
					<dim>8</dim>
				</port>
				<port id="1" precision="FP32">
					<dim>64</dim>
					<dim>64</dim>
					<dim>3</dim>
					<dim>3</dim>
				</port>
			</input>
			<output>
				<port id="2" precision="FP32">
					<dim>1</dim>
					<dim>64</dim>
					<dim>8</dim>
					<dim>8</dim>
				</port>
			</output>
		</layer>
		<layer id="14" name="Constant_3193_compressed" type="Const" version="opset1">
			<data element_type="f16" shape="1, 64, 1, 1" offset="92704" size="128" />
			<output>
				<port id="0" precision="FP16">
					<dim>1</dim>
					<dim>64</dim>
					<dim>1</dim>
					<dim>1</dim>
				</port>
			</output>
		</layer>
		<layer id="15" name="Constant_3193" type="Convert" version="opset1">
			<data destination_type="f32" />
			<rt_info>
				<attribute name="decompression" version="0" />
			</rt_info>
			<input>
				<port id="0" precision="FP16">
					<dim>1</dim>
					<dim>64</dim>
					<dim>1</dim>
					<dim>1</dim>
				</port>
			</input>
			<output>
				<port id="1" precision="FP32">
					<dim>1</dim>
					<dim>64</dim>
					<dim>1</dim>
					<dim>1</dim>
				</port>
			</output>
		</layer>
		<layer id="16" name="Transpose_811" type="Add" version="opset1">
			<data auto_broadcast="numpy" />
			<input>
				<port id="0" precision="FP32">
					<dim>1</dim>
					<dim>64</dim>
					<dim>8</dim>
					<dim>8</dim>
				</port>
				<port id="1" precision="FP32">
					<dim>1</dim>
					<dim>64</dim>
					<dim>1</dim>
					<dim>1</dim>
				</port>
			</input>
			<output>
				<port id="2" precision="FP32">
					<dim>1</dim>
					<dim>64</dim>
					<dim>8</dim>
					<dim>8</dim>
				</port>
			</output>
		</layer>
		<layer id="17" name="Transpose_813" type="ReLU" version="opset1">
			<input>
				<port id="0" precision="FP32">
					<dim>1</dim>
					<dim>64</dim>
					<dim>8</dim>
					<dim>8</dim>
				</port>
			</input>
			<output>
				<port id="1" precision="FP32">
					<dim>1</dim>
					<dim>64</dim>
					<dim>8</dim>
					<dim>8</dim>
				</port>
			</output>
		</layer>
		<layer id="18" name="Multiply_3331_compressed" type="Const" version="opset1">
			<data element_type="f16" shape="64, 64, 3, 3" offset="92832" size="73728" />
			<output>
				<port id="0" precision="FP16">
					<dim>64</dim>
					<dim>64</dim>
					<dim>3</dim>
					<dim>3</dim>
				</port>
			</output>
		</layer>
		<layer id="19" name="Multiply_3331" type="Convert" version="opset1">
			<data destination_type="f32" />
			<rt_info>
				<attribute name="decompression" version="0" />
			</rt_info>
			<input>
				<port id="0" precision="FP16">
					<dim>64</dim>
					<dim>64</dim>
					<dim>3</dim>
					<dim>3</dim>
				</port>
			</input>
			<output>
				<port id="1" precision="FP32">
					<dim>64</dim>
					<dim>64</dim>
					<dim>3</dim>
					<dim>3</dim>
				</port>
			</output>
		</layer>
		<layer id="20" name="Multiply_3195" type="Convolution" version="opset1">
			<data strides="1, 1" dilations="1, 1" pads_begin="0, 0" pads_end="0, 0" auto_pad="same_upper" />
			<input>
				<port id="0" precision="FP32">
					<dim>1</dim>
					<dim>64</dim>
					<dim>8</dim>
					<dim>8</dim>
				</port>
				<port id="1" precision="FP32">
					<dim>64</dim>
					<dim>64</dim>
					<dim>3</dim>
					<dim>3</dim>
				</port>
			</input>
			<output>
				<port id="2" precision="FP32">
					<dim>1</dim>
					<dim>64</dim>
					<dim>8</dim>
					<dim>8</dim>
				</port>
			</output>
		</layer>
		<layer id="21" name="Constant_3200_compressed" type="Const" version="opset1">
			<data element_type="f16" shape="1, 64, 1, 1" offset="166560" size="128" />
			<output>
				<port id="0" precision="FP16">
					<dim>1</dim>
					<dim>64</dim>
					<dim>1</dim>
					<dim>1</dim>
				</port>
			</output>
		</layer>
		<layer id="22" name="Constant_3200" type="Convert" version="opset1">
			<data destination_type="f32" />
			<rt_info>
				<attribute name="decompression" version="0" />
			</rt_info>
			<input>
				<port id="0" precision="FP16">
					<dim>1</dim>
					<dim>64</dim>
					<dim>1</dim>
					<dim>1</dim>
				</port>
			</input>
			<output>
				<port id="1" precision="FP32">
					<dim>1</dim>
					<dim>64</dim>
					<dim>1</dim>
					<dim>1</dim>
				</port>
			</output>
		</layer>
		<layer id="23" name="Transpose_829" type="Add" version="opset1">
			<data auto_broadcast="numpy" />
			<input>
				<port id="0" precision="FP32">
					<dim>1</dim>
					<dim>64</dim>
					<dim>8</dim>
					<dim>8</dim>
				</port>
				<port id="1" precision="FP32">
					<dim>1</dim>
					<dim>64</dim>
					<dim>1</dim>
					<dim>1</dim>
				</port>
			</input>
			<output>
				<port id="2" precision="FP32">
					<dim>1</dim>
					<dim>64</dim>
					<dim>8</dim>
					<dim>8</dim>
				</port>
			</output>
		</layer>
		<layer id="24" name="Transpose_833" type="Add" version="opset1">
			<data auto_broadcast="numpy" />
			<input>
				<port id="0" precision="FP32">
					<dim>1</dim>
					<dim>64</dim>
					<dim>8</dim>
					<dim>8</dim>
				</port>
				<port id="1" precision="FP32">
					<dim>1</dim>
					<dim>64</dim>
					<dim>8</dim>
					<dim>8</dim>
				</port>
			</input>
			<output>
				<port id="2" precision="FP32">
					<dim>1</dim>
					<dim>64</dim>
					<dim>8</dim>
					<dim>8</dim>
				</port>
			</output>
		</layer>
		<layer id="25" name="Transpose_835" type="ReLU" version="opset1">
			<input>
				<port id="0" precision="FP32">
					<dim>1</dim>
					<dim>64</dim>
					<dim>8</dim>
					<dim>8</dim>
				</port>
			</input>
			<output>
				<port id="1" precision="FP32">
					<dim>1</dim>
					<dim>64</dim>
					<dim>8</dim>
					<dim>8</dim>
				</port>
			</output>
		</layer>
		<layer id="26" name="Multiply_3335_compressed" type="Const" version="opset1">
			<data element_type="f16" shape="64, 64, 3, 3" offset="166688" size="73728" />
			<output>
				<port id="0" precision="FP16">
					<dim>64</dim>
					<dim>64</dim>
					<dim>3</dim>
					<dim>3</dim>
				</port>
			</output>
		</layer>
		<layer id="27" name="Multiply_3335" type="Convert" version="opset1">
			<data destination_type="f32" />
			<rt_info>
				<attribute name="decompression" version="0" />
			</rt_info>
			<input>
				<port id="0" precision="FP16">
					<dim>64</dim>
					<dim>64</dim>
					<dim>3</dim>
					<dim>3</dim>
				</port>
			</input>
			<output>
				<port id="1" precision="FP32">
					<dim>64</dim>
					<dim>64</dim>
					<dim>3</dim>
					<dim>3</dim>
				</port>
			</output>
		</layer>
		<layer id="28" name="Multiply_3202" type="Convolution" version="opset1">
			<data strides="1, 1" dilations="1, 1" pads_begin="0, 0" pads_end="0, 0" auto_pad="same_upper" />
			<input>
				<port id="0" precision="FP32">
					<dim>1</dim>
					<dim>64</dim>
					<dim>8</dim>
					<dim>8</dim>
				</port>
				<port id="1" precision="FP32">
					<dim>64</dim>
					<dim>64</dim>
					<dim>3</dim>
					<dim>3</dim>
				</port>
			</input>
			<output>
				<port id="2" precision="FP32">
					<dim>1</dim>
					<dim>64</dim>
					<dim>8</dim>
					<dim>8</dim>
				</port>
			</output>
		</layer>
		<layer id="29" name="Constant_3207_compressed" type="Const" version="opset1">
			<data element_type="f16" shape="1, 64, 1, 1" offset="240416" size="128" />
			<output>
				<port id="0" precision="FP16">
					<dim>1</dim>
					<dim>64</dim>
					<dim>1</dim>
					<dim>1</dim>
				</port>
			</output>
		</layer>
		<layer id="30" name="Constant_3207" type="Convert" version="opset1">
			<data destination_type="f32" />
			<rt_info>
				<attribute name="decompression" version="0" />
			</rt_info>
			<input>
				<port id="0" precision="FP16">
					<dim>1</dim>
					<dim>64</dim>
					<dim>1</dim>
					<dim>1</dim>
				</port>
			</input>
			<output>
				<port id="1" precision="FP32">
					<dim>1</dim>
					<dim>64</dim>
					<dim>1</dim>
					<dim>1</dim>
				</port>
			</output>
		</layer>
		<layer id="31" name="Transpose_851" type="Add" version="opset1">
			<data auto_broadcast="numpy" />
			<input>
				<port id="0" precision="FP32">
					<dim>1</dim>
					<dim>64</dim>
					<dim>8</dim>
					<dim>8</dim>
				</port>
				<port id="1" precision="FP32">
					<dim>1</dim>
					<dim>64</dim>
					<dim>1</dim>
					<dim>1</dim>
				</port>
			</input>
			<output>
				<port id="2" precision="FP32">
					<dim>1</dim>
					<dim>64</dim>
					<dim>8</dim>
					<dim>8</dim>
				</port>
			</output>
		</layer>
		<layer id="32" name="Transpose_853" type="ReLU" version="opset1">
			<input>
				<port id="0" precision="FP32">
					<dim>1</dim>
					<dim>64</dim>
					<dim>8</dim>
					<dim>8</dim>
				</port>
			</input>
			<output>
				<port id="1" precision="FP32">
					<dim>1</dim>
					<dim>64</dim>
					<dim>8</dim>
					<dim>8</dim>
				</port>
			</output>
		</layer>
		<layer id="33" name="Multiply_3339_compressed" type="Const" version="opset1">
			<data element_type="f16" shape="64, 64, 3, 3" offset="240544" size="73728" />
			<output>
				<port id="0" precision="FP16">
					<dim>64</dim>
					<dim>64</dim>
					<dim>3</dim>
					<dim>3</dim>
				</port>
			</output>
		</layer>
		<layer id="34" name="Multiply_3339" type="Convert" version="opset1">
			<data destination_type="f32" />
			<rt_info>
				<attribute name="decompression" version="0" />
			</rt_info>
			<input>
				<port id="0" precision="FP16">
					<dim>64</dim>
					<dim>64</dim>
					<dim>3</dim>
					<dim>3</dim>
				</port>
			</input>
			<output>
				<port id="1" precision="FP32">
					<dim>64</dim>
					<dim>64</dim>
					<dim>3</dim>
					<dim>3</dim>
				</port>
			</output>
		</layer>
		<layer id="35" name="Multiply_3209" type="Convolution" version="opset1">
			<data strides="1, 1" dilations="1, 1" pads_begin="0, 0" pads_end="0, 0" auto_pad="same_upper" />
			<input>
				<port id="0" precision="FP32">
					<dim>1</dim>
					<dim>64</dim>
					<dim>8</dim>
					<dim>8</dim>
				</port>
				<port id="1" precision="FP32">
					<dim>64</dim>
					<dim>64</dim>
					<dim>3</dim>
					<dim>3</dim>
				</port>
			</input>
			<output>
				<port id="2" precision="FP32">
					<dim>1</dim>
					<dim>64</dim>
					<dim>8</dim>
					<dim>8</dim>
				</port>
			</output>
		</layer>
		<layer id="36" name="Constant_3214_compressed" type="Const" version="opset1">
			<data element_type="f16" shape="1, 64, 1, 1" offset="314272" size="128" />
			<output>
				<port id="0" precision="FP16">
					<dim>1</dim>
					<dim>64</dim>
					<dim>1</dim>
					<dim>1</dim>
				</port>
			</output>
		</layer>
		<layer id="37" name="Constant_3214" type="Convert" version="opset1">
			<data destination_type="f32" />
			<rt_info>
				<attribute name="decompression" version="0" />
			</rt_info>
			<input>
				<port id="0" precision="FP16">
					<dim>1</dim>
					<dim>64</dim>
					<dim>1</dim>
					<dim>1</dim>
				</port>
			</input>
			<output>
				<port id="1" precision="FP32">
					<dim>1</dim>
					<dim>64</dim>
					<dim>1</dim>
					<dim>1</dim>
				</port>
			</output>
		</layer>
		<layer id="38" name="Transpose_869" type="Add" version="opset1">
			<data auto_broadcast="numpy" />
			<input>
				<port id="0" precision="FP32">
					<dim>1</dim>
					<dim>64</dim>
					<dim>8</dim>
					<dim>8</dim>
				</port>
				<port id="1" precision="FP32">
					<dim>1</dim>
					<dim>64</dim>
					<dim>1</dim>
					<dim>1</dim>
				</port>
			</input>
			<output>
				<port id="2" precision="FP32">
					<dim>1</dim>
					<dim>64</dim>
					<dim>8</dim>
					<dim>8</dim>
				</port>
			</output>
		</layer>
		<layer id="39" name="Transpose_873" type="Add" version="opset1">
			<data auto_broadcast="numpy" />
			<input>
				<port id="0" precision="FP32">
					<dim>1</dim>
					<dim>64</dim>
					<dim>8</dim>
					<dim>8</dim>
				</port>
				<port id="1" precision="FP32">
					<dim>1</dim>
					<dim>64</dim>
					<dim>8</dim>
					<dim>8</dim>
				</port>
			</input>
			<output>
				<port id="2" precision="FP32">
					<dim>1</dim>
					<dim>64</dim>
					<dim>8</dim>
					<dim>8</dim>
				</port>
			</output>
		</layer>
		<layer id="40" name="Transpose_875" type="ReLU" version="opset1">
			<input>
				<port id="0" precision="FP32">
					<dim>1</dim>
					<dim>64</dim>
					<dim>8</dim>
					<dim>8</dim>
				</port>
			</input>
			<output>
				<port id="1" precision="FP32">
					<dim>1</dim>
					<dim>64</dim>
					<dim>8</dim>
					<dim>8</dim>
				</port>
			</output>
		</layer>
		<layer id="41" name="Multiply_3343_compressed" type="Const" version="opset1">
			<data element_type="f16" shape="128, 64, 3, 3" offset="314400" size="147456" />
			<output>
				<port id="0" precision="FP16">
					<dim>128</dim>
					<dim>64</dim>
					<dim>3</dim>
					<dim>3</dim>
				</port>
			</output>
		</layer>
		<layer id="42" name="Multiply_3343" type="Convert" version="opset1">
			<data destination_type="f32" />
			<rt_info>
				<attribute name="decompression" version="0" />
			</rt_info>
			<input>
				<port id="0" precision="FP16">
					<dim>128</dim>
					<dim>64</dim>
					<dim>3</dim>
					<dim>3</dim>
				</port>
			</input>
			<output>
				<port id="1" precision="FP32">
					<dim>128</dim>
					<dim>64</dim>
					<dim>3</dim>
					<dim>3</dim>
				</port>
			</output>
		</layer>
		<layer id="43" name="Multiply_3216" type="Convolution" version="opset1">
			<data strides="2, 2" dilations="1, 1" pads_begin="0, 0" pads_end="0, 0" auto_pad="same_upper" />
			<input>
				<port id="0" precision="FP32">
					<dim>1</dim>
					<dim>64</dim>
					<dim>8</dim>
					<dim>8</dim>
				</port>
				<port id="1" precision="FP32">
					<dim>128</dim>
					<dim>64</dim>
					<dim>3</dim>
					<dim>3</dim>
				</port>
			</input>
			<output>
				<port id="2" precision="FP32">
					<dim>1</dim>
					<dim>128</dim>
					<dim>4</dim>
					<dim>4</dim>
				</port>
			</output>
		</layer>
		<layer id="44" name="Constant_3221_compressed" type="Const" version="opset1">
			<data element_type="f16" shape="1, 128, 1, 1" offset="461856" size="256" />
			<output>
				<port id="0" precision="FP16">
					<dim>1</dim>
					<dim>128</dim>
					<dim>1</dim>
					<dim>1</dim>
				</port>
			</output>
		</layer>
		<layer id="45" name="Constant_3221" type="Convert" version="opset1">
			<data destination_type="f32" />
			<rt_info>
				<attribute name="decompression" version="0" />
			</rt_info>
			<input>
				<port id="0" precision="FP16">
					<dim>1</dim>
					<dim>128</dim>
					<dim>1</dim>
					<dim>1</dim>
				</port>
			</input>
			<output>
				<port id="1" precision="FP32">
					<dim>1</dim>
					<dim>128</dim>
					<dim>1</dim>
					<dim>1</dim>
				</port>
			</output>
		</layer>
		<layer id="46" name="Transpose_891" type="Add" version="opset1">
			<data auto_broadcast="numpy" />
			<input>
				<port id="0" precision="FP32">
					<dim>1</dim>
					<dim>128</dim>
					<dim>4</dim>
					<dim>4</dim>
				</port>
				<port id="1" precision="FP32">
					<dim>1</dim>
					<dim>128</dim>
					<dim>1</dim>
					<dim>1</dim>
				</port>
			</input>
			<output>
				<port id="2" precision="FP32">
					<dim>1</dim>
					<dim>128</dim>
					<dim>4</dim>
					<dim>4</dim>
				</port>
			</output>
		</layer>
		<layer id="47" name="Transpose_893" type="ReLU" version="opset1">
			<input>
				<port id="0" precision="FP32">
					<dim>1</dim>
					<dim>128</dim>
					<dim>4</dim>
					<dim>4</dim>
				</port>
			</input>
			<output>
				<port id="1" precision="FP32">
					<dim>1</dim>
					<dim>128</dim>
					<dim>4</dim>
					<dim>4</dim>
				</port>
			</output>
		</layer>
		<layer id="48" name="Multiply_3347_compressed" type="Const" version="opset1">
			<data element_type="f16" shape="128, 128, 3, 3" offset="462112" size="294912" />
			<output>
				<port id="0" precision="FP16">
					<dim>128</dim>
					<dim>128</dim>
					<dim>3</dim>
					<dim>3</dim>
				</port>
			</output>
		</layer>
		<layer id="49" name="Multiply_3347" type="Convert" version="opset1">
			<data destination_type="f32" />
			<rt_info>
				<attribute name="decompression" version="0" />
			</rt_info>
			<input>
				<port id="0" precision="FP16">
					<dim>128</dim>
					<dim>128</dim>
					<dim>3</dim>
					<dim>3</dim>
				</port>
			</input>
			<output>
				<port id="1" precision="FP32">
					<dim>128</dim>
					<dim>128</dim>
					<dim>3</dim>
					<dim>3</dim>
				</port>
			</output>
		</layer>
		<layer id="50" name="Multiply_3223" type="Convolution" version="opset1">
			<data strides="1, 1" dilations="1, 1" pads_begin="0, 0" pads_end="0, 0" auto_pad="same_upper" />
			<input>
				<port id="0" precision="FP32">
					<dim>1</dim>
					<dim>128</dim>
					<dim>4</dim>
					<dim>4</dim>
				</port>
				<port id="1" precision="FP32">
					<dim>128</dim>
					<dim>128</dim>
					<dim>3</dim>
					<dim>3</dim>
				</port>
			</input>
			<output>
				<port id="2" precision="FP32">
					<dim>1</dim>
					<dim>128</dim>
					<dim>4</dim>
					<dim>4</dim>
				</port>
			</output>
		</layer>
		<layer id="51" name="Constant_3228_compressed" type="Const" version="opset1">
			<data element_type="f16" shape="1, 128, 1, 1" offset="757024" size="256" />
			<output>
				<port id="0" precision="FP16">
					<dim>1</dim>
					<dim>128</dim>
					<dim>1</dim>
					<dim>1</dim>
				</port>
			</output>
		</layer>
		<layer id="52" name="Constant_3228" type="Convert" version="opset1">
			<data destination_type="f32" />
			<rt_info>
				<attribute name="decompression" version="0" />
			</rt_info>
			<input>
				<port id="0" precision="FP16">
					<dim>1</dim>
					<dim>128</dim>
					<dim>1</dim>
					<dim>1</dim>
				</port>
			</input>
			<output>
				<port id="1" precision="FP32">
					<dim>1</dim>
					<dim>128</dim>
					<dim>1</dim>
					<dim>1</dim>
				</port>
			</output>
		</layer>
		<layer id="53" name="Transpose_909" type="Add" version="opset1">
			<data auto_broadcast="numpy" />
			<input>
				<port id="0" precision="FP32">
					<dim>1</dim>
					<dim>128</dim>
					<dim>4</dim>
					<dim>4</dim>
				</port>
				<port id="1" precision="FP32">
					<dim>1</dim>
					<dim>128</dim>
					<dim>1</dim>
					<dim>1</dim>
				</port>
			</input>
			<output>
				<port id="2" precision="FP32">
					<dim>1</dim>
					<dim>128</dim>
					<dim>4</dim>
					<dim>4</dim>
				</port>
			</output>
		</layer>
		<layer id="54" name="Multiply_3351_compressed" type="Const" version="opset1">
			<data element_type="f16" shape="128, 64, 1, 1" offset="757280" size="16384" />
			<output>
				<port id="0" precision="FP16">
					<dim>128</dim>
					<dim>64</dim>
					<dim>1</dim>
					<dim>1</dim>
				</port>
			</output>
		</layer>
		<layer id="55" name="Multiply_3351" type="Convert" version="opset1">
			<data destination_type="f32" />
			<rt_info>
				<attribute name="decompression" version="0" />
			</rt_info>
			<input>
				<port id="0" precision="FP16">
					<dim>128</dim>
					<dim>64</dim>
					<dim>1</dim>
					<dim>1</dim>
				</port>
			</input>
			<output>
				<port id="1" precision="FP32">
					<dim>128</dim>
					<dim>64</dim>
					<dim>1</dim>
					<dim>1</dim>
				</port>
			</output>
		</layer>
		<layer id="56" name="Multiply_3230" type="Convolution" version="opset1">
			<data strides="2, 2" dilations="1, 1" pads_begin="0, 0" pads_end="0, 0" auto_pad="same_upper" />
			<input>
				<port id="0" precision="FP32">
					<dim>1</dim>
					<dim>64</dim>
					<dim>8</dim>
					<dim>8</dim>
				</port>
				<port id="1" precision="FP32">
					<dim>128</dim>
					<dim>64</dim>
					<dim>1</dim>
					<dim>1</dim>
				</port>
			</input>
			<output>
				<port id="2" precision="FP32">
					<dim>1</dim>
					<dim>128</dim>
					<dim>4</dim>
					<dim>4</dim>
				</port>
			</output>
		</layer>
		<layer id="57" name="Constant_3235_compressed" type="Const" version="opset1">
			<data element_type="f16" shape="1, 128, 1, 1" offset="773664" size="256" />
			<output>
				<port id="0" precision="FP16">
					<dim>1</dim>
					<dim>128</dim>
					<dim>1</dim>
					<dim>1</dim>
				</port>
			</output>
		</layer>
		<layer id="58" name="Constant_3235" type="Convert" version="opset1">
			<data destination_type="f32" />
			<rt_info>
				<attribute name="decompression" version="0" />
			</rt_info>
			<input>
				<port id="0" precision="FP16">
					<dim>1</dim>
					<dim>128</dim>
					<dim>1</dim>
					<dim>1</dim>
				</port>
			</input>
			<output>
				<port id="1" precision="FP32">
					<dim>1</dim>
					<dim>128</dim>
					<dim>1</dim>
					<dim>1</dim>
				</port>
			</output>
		</layer>
		<layer id="59" name="Transpose_925" type="Add" version="opset1">
			<data auto_broadcast="numpy" />
			<input>
				<port id="0" precision="FP32">
					<dim>1</dim>
					<dim>128</dim>
					<dim>4</dim>
					<dim>4</dim>
				</port>
				<port id="1" precision="FP32">
					<dim>1</dim>
					<dim>128</dim>
					<dim>1</dim>
					<dim>1</dim>
				</port>
			</input>
			<output>
				<port id="2" precision="FP32">
					<dim>1</dim>
					<dim>128</dim>
					<dim>4</dim>
					<dim>4</dim>
				</port>
			</output>
		</layer>
		<layer id="60" name="Transpose_929" type="Add" version="opset1">
			<data auto_broadcast="numpy" />
			<input>
				<port id="0" precision="FP32">
					<dim>1</dim>
					<dim>128</dim>
					<dim>4</dim>
					<dim>4</dim>
				</port>
				<port id="1" precision="FP32">
					<dim>1</dim>
					<dim>128</dim>
					<dim>4</dim>
					<dim>4</dim>
				</port>
			</input>
			<output>
				<port id="2" precision="FP32">
					<dim>1</dim>
					<dim>128</dim>
					<dim>4</dim>
					<dim>4</dim>
				</port>
			</output>
		</layer>
		<layer id="61" name="Transpose_931" type="ReLU" version="opset1">
			<input>
				<port id="0" precision="FP32">
					<dim>1</dim>
					<dim>128</dim>
					<dim>4</dim>
					<dim>4</dim>
				</port>
			</input>
			<output>
				<port id="1" precision="FP32">
					<dim>1</dim>
					<dim>128</dim>
					<dim>4</dim>
					<dim>4</dim>
				</port>
			</output>
		</layer>
		<layer id="62" name="Multiply_3355_compressed" type="Const" version="opset1">
			<data element_type="f16" shape="128, 128, 3, 3" offset="773920" size="294912" />
			<output>
				<port id="0" precision="FP16">
					<dim>128</dim>
					<dim>128</dim>
					<dim>3</dim>
					<dim>3</dim>
				</port>
			</output>
		</layer>
		<layer id="63" name="Multiply_3355" type="Convert" version="opset1">
			<data destination_type="f32" />
			<rt_info>
				<attribute name="decompression" version="0" />
			</rt_info>
			<input>
				<port id="0" precision="FP16">
					<dim>128</dim>
					<dim>128</dim>
					<dim>3</dim>
					<dim>3</dim>
				</port>
			</input>
			<output>
				<port id="1" precision="FP32">
					<dim>128</dim>
					<dim>128</dim>
					<dim>3</dim>
					<dim>3</dim>
				</port>
			</output>
		</layer>
		<layer id="64" name="Multiply_3237" type="Convolution" version="opset1">
			<data strides="1, 1" dilations="1, 1" pads_begin="0, 0" pads_end="0, 0" auto_pad="same_upper" />
			<input>
				<port id="0" precision="FP32">
					<dim>1</dim>
					<dim>128</dim>
					<dim>4</dim>
					<dim>4</dim>
				</port>
				<port id="1" precision="FP32">
					<dim>128</dim>
					<dim>128</dim>
					<dim>3</dim>
					<dim>3</dim>
				</port>
			</input>
			<output>
				<port id="2" precision="FP32">
					<dim>1</dim>
					<dim>128</dim>
					<dim>4</dim>
					<dim>4</dim>
				</port>
			</output>
		</layer>
		<layer id="65" name="Constant_3242_compressed" type="Const" version="opset1">
			<data element_type="f16" shape="1, 128, 1, 1" offset="1068832" size="256" />
			<output>
				<port id="0" precision="FP16">
					<dim>1</dim>
					<dim>128</dim>
					<dim>1</dim>
					<dim>1</dim>
				</port>
			</output>
		</layer>
		<layer id="66" name="Constant_3242" type="Convert" version="opset1">
			<data destination_type="f32" />
			<rt_info>
				<attribute name="decompression" version="0" />
			</rt_info>
			<input>
				<port id="0" precision="FP16">
					<dim>1</dim>
					<dim>128</dim>
					<dim>1</dim>
					<dim>1</dim>
				</port>
			</input>
			<output>
				<port id="1" precision="FP32">
					<dim>1</dim>
					<dim>128</dim>
					<dim>1</dim>
					<dim>1</dim>
				</port>
			</output>
		</layer>
		<layer id="67" name="Transpose_947" type="Add" version="opset1">
			<data auto_broadcast="numpy" />
			<input>
				<port id="0" precision="FP32">
					<dim>1</dim>
					<dim>128</dim>
					<dim>4</dim>
					<dim>4</dim>
				</port>
				<port id="1" precision="FP32">
					<dim>1</dim>
					<dim>128</dim>
					<dim>1</dim>
					<dim>1</dim>
				</port>
			</input>
			<output>
				<port id="2" precision="FP32">
					<dim>1</dim>
					<dim>128</dim>
					<dim>4</dim>
					<dim>4</dim>
				</port>
			</output>
		</layer>
		<layer id="68" name="Transpose_949" type="ReLU" version="opset1">
			<input>
				<port id="0" precision="FP32">
					<dim>1</dim>
					<dim>128</dim>
					<dim>4</dim>
					<dim>4</dim>
				</port>
			</input>
			<output>
				<port id="1" precision="FP32">
					<dim>1</dim>
					<dim>128</dim>
					<dim>4</dim>
					<dim>4</dim>
				</port>
			</output>
		</layer>
		<layer id="69" name="Multiply_3359_compressed" type="Const" version="opset1">
			<data element_type="f16" shape="128, 128, 3, 3" offset="1069088" size="294912" />
			<output>
				<port id="0" precision="FP16">
					<dim>128</dim>
					<dim>128</dim>
					<dim>3</dim>
					<dim>3</dim>
				</port>
			</output>
		</layer>
		<layer id="70" name="Multiply_3359" type="Convert" version="opset1">
			<data destination_type="f32" />
			<rt_info>
				<attribute name="decompression" version="0" />
			</rt_info>
			<input>
				<port id="0" precision="FP16">
					<dim>128</dim>
					<dim>128</dim>
					<dim>3</dim>
					<dim>3</dim>
				</port>
			</input>
			<output>
				<port id="1" precision="FP32">
					<dim>128</dim>
					<dim>128</dim>
					<dim>3</dim>
					<dim>3</dim>
				</port>
			</output>
		</layer>
		<layer id="71" name="Multiply_3244" type="Convolution" version="opset1">
			<data strides="1, 1" dilations="1, 1" pads_begin="0, 0" pads_end="0, 0" auto_pad="same_upper" />
			<input>
				<port id="0" precision="FP32">
					<dim>1</dim>
					<dim>128</dim>
					<dim>4</dim>
					<dim>4</dim>
				</port>
				<port id="1" precision="FP32">
					<dim>128</dim>
					<dim>128</dim>
					<dim>3</dim>
					<dim>3</dim>
				</port>
			</input>
			<output>
				<port id="2" precision="FP32">
					<dim>1</dim>
					<dim>128</dim>
					<dim>4</dim>
					<dim>4</dim>
				</port>
			</output>
		</layer>
		<layer id="72" name="Constant_3249_compressed" type="Const" version="opset1">
			<data element_type="f16" shape="1, 128, 1, 1" offset="1364000" size="256" />
			<output>
				<port id="0" precision="FP16">
					<dim>1</dim>
					<dim>128</dim>
					<dim>1</dim>
					<dim>1</dim>
				</port>
			</output>
		</layer>
		<layer id="73" name="Constant_3249" type="Convert" version="opset1">
			<data destination_type="f32" />
			<rt_info>
				<attribute name="decompression" version="0" />
			</rt_info>
			<input>
				<port id="0" precision="FP16">
					<dim>1</dim>
					<dim>128</dim>
					<dim>1</dim>
					<dim>1</dim>
				</port>
			</input>
			<output>
				<port id="1" precision="FP32">
					<dim>1</dim>
					<dim>128</dim>
					<dim>1</dim>
					<dim>1</dim>
				</port>
			</output>
		</layer>
		<layer id="74" name="Transpose_965" type="Add" version="opset1">
			<data auto_broadcast="numpy" />
			<input>
				<port id="0" precision="FP32">
					<dim>1</dim>
					<dim>128</dim>
					<dim>4</dim>
					<dim>4</dim>
				</port>
				<port id="1" precision="FP32">
					<dim>1</dim>
					<dim>128</dim>
					<dim>1</dim>
					<dim>1</dim>
				</port>
			</input>
			<output>
				<port id="2" precision="FP32">
					<dim>1</dim>
					<dim>128</dim>
					<dim>4</dim>
					<dim>4</dim>
				</port>
			</output>
		</layer>
		<layer id="75" name="Transpose_969" type="Add" version="opset1">
			<data auto_broadcast="numpy" />
			<input>
				<port id="0" precision="FP32">
					<dim>1</dim>
					<dim>128</dim>
					<dim>4</dim>
					<dim>4</dim>
				</port>
				<port id="1" precision="FP32">
					<dim>1</dim>
					<dim>128</dim>
					<dim>4</dim>
					<dim>4</dim>
				</port>
			</input>
			<output>
				<port id="2" precision="FP32">
					<dim>1</dim>
					<dim>128</dim>
					<dim>4</dim>
					<dim>4</dim>
				</port>
			</output>
		</layer>
		<layer id="76" name="Transpose_971" type="ReLU" version="opset1">
			<input>
				<port id="0" precision="FP32">
					<dim>1</dim>
					<dim>128</dim>
					<dim>4</dim>
					<dim>4</dim>
				</port>
			</input>
			<output>
				<port id="1" precision="FP32">
					<dim>1</dim>
					<dim>128</dim>
					<dim>4</dim>
					<dim>4</dim>
				</port>
			</output>
		</layer>
		<layer id="77" name="Multiply_3363_compressed" type="Const" version="opset1">
			<data element_type="f16" shape="256, 128, 3, 3" offset="1364256" size="589824" />
			<output>
				<port id="0" precision="FP16">
					<dim>256</dim>
					<dim>128</dim>
					<dim>3</dim>
					<dim>3</dim>
				</port>
			</output>
		</layer>
		<layer id="78" name="Multiply_3363" type="Convert" version="opset1">
			<data destination_type="f32" />
			<rt_info>
				<attribute name="decompression" version="0" />
			</rt_info>
			<input>
				<port id="0" precision="FP16">
					<dim>256</dim>
					<dim>128</dim>
					<dim>3</dim>
					<dim>3</dim>
				</port>
			</input>
			<output>
				<port id="1" precision="FP32">
					<dim>256</dim>
					<dim>128</dim>
					<dim>3</dim>
					<dim>3</dim>
				</port>
			</output>
		</layer>
		<layer id="79" name="Multiply_3251" type="Convolution" version="opset1">
			<data strides="2, 2" dilations="1, 1" pads_begin="0, 0" pads_end="0, 0" auto_pad="same_upper" />
			<input>
				<port id="0" precision="FP32">
					<dim>1</dim>
					<dim>128</dim>
					<dim>4</dim>
					<dim>4</dim>
				</port>
				<port id="1" precision="FP32">
					<dim>256</dim>
					<dim>128</dim>
					<dim>3</dim>
					<dim>3</dim>
				</port>
			</input>
			<output>
				<port id="2" precision="FP32">
					<dim>1</dim>
					<dim>256</dim>
					<dim>2</dim>
					<dim>2</dim>
				</port>
			</output>
		</layer>
		<layer id="80" name="Constant_3256_compressed" type="Const" version="opset1">
			<data element_type="f16" shape="1, 256, 1, 1" offset="1954080" size="512" />
			<output>
				<port id="0" precision="FP16">
					<dim>1</dim>
					<dim>256</dim>
					<dim>1</dim>
					<dim>1</dim>
				</port>
			</output>
		</layer>
		<layer id="81" name="Constant_3256" type="Convert" version="opset1">
			<data destination_type="f32" />
			<rt_info>
				<attribute name="decompression" version="0" />
			</rt_info>
			<input>
				<port id="0" precision="FP16">
					<dim>1</dim>
					<dim>256</dim>
					<dim>1</dim>
					<dim>1</dim>
				</port>
			</input>
			<output>
				<port id="1" precision="FP32">
					<dim>1</dim>
					<dim>256</dim>
					<dim>1</dim>
					<dim>1</dim>
				</port>
			</output>
		</layer>
		<layer id="82" name="Transpose_987" type="Add" version="opset1">
			<data auto_broadcast="numpy" />
			<input>
				<port id="0" precision="FP32">
					<dim>1</dim>
					<dim>256</dim>
					<dim>2</dim>
					<dim>2</dim>
				</port>
				<port id="1" precision="FP32">
					<dim>1</dim>
					<dim>256</dim>
					<dim>1</dim>
					<dim>1</dim>
				</port>
			</input>
			<output>
				<port id="2" precision="FP32">
					<dim>1</dim>
					<dim>256</dim>
					<dim>2</dim>
					<dim>2</dim>
				</port>
			</output>
		</layer>
		<layer id="83" name="Transpose_989" type="ReLU" version="opset1">
			<input>
				<port id="0" precision="FP32">
					<dim>1</dim>
					<dim>256</dim>
					<dim>2</dim>
					<dim>2</dim>
				</port>
			</input>
			<output>
				<port id="1" precision="FP32">
					<dim>1</dim>
					<dim>256</dim>
					<dim>2</dim>
					<dim>2</dim>
				</port>
			</output>
		</layer>
		<layer id="84" name="Multiply_3367_compressed" type="Const" version="opset1">
			<data element_type="f16" shape="256, 256, 3, 3" offset="1954592" size="1179648" />
			<output>
				<port id="0" precision="FP16">
					<dim>256</dim>
					<dim>256</dim>
					<dim>3</dim>
					<dim>3</dim>
				</port>
			</output>
		</layer>
		<layer id="85" name="Multiply_3367" type="Convert" version="opset1">
			<data destination_type="f32" />
			<rt_info>
				<attribute name="decompression" version="0" />
			</rt_info>
			<input>
				<port id="0" precision="FP16">
					<dim>256</dim>
					<dim>256</dim>
					<dim>3</dim>
					<dim>3</dim>
				</port>
			</input>
			<output>
				<port id="1" precision="FP32">
					<dim>256</dim>
					<dim>256</dim>
					<dim>3</dim>
					<dim>3</dim>
				</port>
			</output>
		</layer>
		<layer id="86" name="Multiply_3258" type="Convolution" version="opset1">
			<data strides="1, 1" dilations="1, 1" pads_begin="0, 0" pads_end="0, 0" auto_pad="same_upper" />
			<input>
				<port id="0" precision="FP32">
					<dim>1</dim>
					<dim>256</dim>
					<dim>2</dim>
					<dim>2</dim>
				</port>
				<port id="1" precision="FP32">
					<dim>256</dim>
					<dim>256</dim>
					<dim>3</dim>
					<dim>3</dim>
				</port>
			</input>
			<output>
				<port id="2" precision="FP32">
					<dim>1</dim>
					<dim>256</dim>
					<dim>2</dim>
					<dim>2</dim>
				</port>
			</output>
		</layer>
		<layer id="87" name="Constant_3263_compressed" type="Const" version="opset1">
			<data element_type="f16" shape="1, 256, 1, 1" offset="3134240" size="512" />
			<output>
				<port id="0" precision="FP16">
					<dim>1</dim>
					<dim>256</dim>
					<dim>1</dim>
					<dim>1</dim>
				</port>
			</output>
		</layer>
		<layer id="88" name="Constant_3263" type="Convert" version="opset1">
			<data destination_type="f32" />
			<rt_info>
				<attribute name="decompression" version="0" />
			</rt_info>
			<input>
				<port id="0" precision="FP16">
					<dim>1</dim>
					<dim>256</dim>
					<dim>1</dim>
					<dim>1</dim>
				</port>
			</input>
			<output>
				<port id="1" precision="FP32">
					<dim>1</dim>
					<dim>256</dim>
					<dim>1</dim>
					<dim>1</dim>
				</port>
			</output>
		</layer>
		<layer id="89" name="Transpose_1005" type="Add" version="opset1">
			<data auto_broadcast="numpy" />
			<input>
				<port id="0" precision="FP32">
					<dim>1</dim>
					<dim>256</dim>
					<dim>2</dim>
					<dim>2</dim>
				</port>
				<port id="1" precision="FP32">
					<dim>1</dim>
					<dim>256</dim>
					<dim>1</dim>
					<dim>1</dim>
				</port>
			</input>
			<output>
				<port id="2" precision="FP32">
					<dim>1</dim>
					<dim>256</dim>
					<dim>2</dim>
					<dim>2</dim>
				</port>
			</output>
		</layer>
		<layer id="90" name="Multiply_3371_compressed" type="Const" version="opset1">
			<data element_type="f16" shape="256, 128, 1, 1" offset="3134752" size="65536" />
			<output>
				<port id="0" precision="FP16">
					<dim>256</dim>
					<dim>128</dim>
					<dim>1</dim>
					<dim>1</dim>
				</port>
			</output>
		</layer>
		<layer id="91" name="Multiply_3371" type="Convert" version="opset1">
			<data destination_type="f32" />
			<rt_info>
				<attribute name="decompression" version="0" />
			</rt_info>
			<input>
				<port id="0" precision="FP16">
					<dim>256</dim>
					<dim>128</dim>
					<dim>1</dim>
					<dim>1</dim>
				</port>
			</input>
			<output>
				<port id="1" precision="FP32">
					<dim>256</dim>
					<dim>128</dim>
					<dim>1</dim>
					<dim>1</dim>
				</port>
			</output>
		</layer>
		<layer id="92" name="Multiply_3265" type="Convolution" version="opset1">
			<data strides="2, 2" dilations="1, 1" pads_begin="0, 0" pads_end="0, 0" auto_pad="same_upper" />
			<input>
				<port id="0" precision="FP32">
					<dim>1</dim>
					<dim>128</dim>
					<dim>4</dim>
					<dim>4</dim>
				</port>
				<port id="1" precision="FP32">
					<dim>256</dim>
					<dim>128</dim>
					<dim>1</dim>
					<dim>1</dim>
				</port>
			</input>
			<output>
				<port id="2" precision="FP32">
					<dim>1</dim>
					<dim>256</dim>
					<dim>2</dim>
					<dim>2</dim>
				</port>
			</output>
		</layer>
		<layer id="93" name="Constant_3270_compressed" type="Const" version="opset1">
			<data element_type="f16" shape="1, 256, 1, 1" offset="3200288" size="512" />
			<output>
				<port id="0" precision="FP16">
					<dim>1</dim>
					<dim>256</dim>
					<dim>1</dim>
					<dim>1</dim>
				</port>
			</output>
		</layer>
		<layer id="94" name="Constant_3270" type="Convert" version="opset1">
			<data destination_type="f32" />
			<rt_info>
				<attribute name="decompression" version="0" />
			</rt_info>
			<input>
				<port id="0" precision="FP16">
					<dim>1</dim>
					<dim>256</dim>
					<dim>1</dim>
					<dim>1</dim>
				</port>
			</input>
			<output>
				<port id="1" precision="FP32">
					<dim>1</dim>
					<dim>256</dim>
					<dim>1</dim>
					<dim>1</dim>
				</port>
			</output>
		</layer>
		<layer id="95" name="Transpose_1021" type="Add" version="opset1">
			<data auto_broadcast="numpy" />
			<input>
				<port id="0" precision="FP32">
					<dim>1</dim>
					<dim>256</dim>
					<dim>2</dim>
					<dim>2</dim>
				</port>
				<port id="1" precision="FP32">
					<dim>1</dim>
					<dim>256</dim>
					<dim>1</dim>
					<dim>1</dim>
				</port>
			</input>
			<output>
				<port id="2" precision="FP32">
					<dim>1</dim>
					<dim>256</dim>
					<dim>2</dim>
					<dim>2</dim>
				</port>
			</output>
		</layer>
		<layer id="96" name="Transpose_1025" type="Add" version="opset1">
			<data auto_broadcast="numpy" />
			<input>
				<port id="0" precision="FP32">
					<dim>1</dim>
					<dim>256</dim>
					<dim>2</dim>
					<dim>2</dim>
				</port>
				<port id="1" precision="FP32">
					<dim>1</dim>
					<dim>256</dim>
					<dim>2</dim>
					<dim>2</dim>
				</port>
			</input>
			<output>
				<port id="2" precision="FP32">
					<dim>1</dim>
					<dim>256</dim>
					<dim>2</dim>
					<dim>2</dim>
				</port>
			</output>
		</layer>
		<layer id="97" name="Transpose_1027" type="ReLU" version="opset1">
			<input>
				<port id="0" precision="FP32">
					<dim>1</dim>
					<dim>256</dim>
					<dim>2</dim>
					<dim>2</dim>
				</port>
			</input>
			<output>
				<port id="1" precision="FP32">
					<dim>1</dim>
					<dim>256</dim>
					<dim>2</dim>
					<dim>2</dim>
				</port>
			</output>
		</layer>
		<layer id="98" name="Multiply_3375_compressed" type="Const" version="opset1">
			<data element_type="f16" shape="256, 256, 3, 3" offset="3200800" size="1179648" />
			<output>
				<port id="0" precision="FP16">
					<dim>256</dim>
					<dim>256</dim>
					<dim>3</dim>
					<dim>3</dim>
				</port>
			</output>
		</layer>
		<layer id="99" name="Multiply_3375" type="Convert" version="opset1">
			<data destination_type="f32" />
			<rt_info>
				<attribute name="decompression" version="0" />
			</rt_info>
			<input>
				<port id="0" precision="FP16">
					<dim>256</dim>
					<dim>256</dim>
					<dim>3</dim>
					<dim>3</dim>
				</port>
			</input>
			<output>
				<port id="1" precision="FP32">
					<dim>256</dim>
					<dim>256</dim>
					<dim>3</dim>
					<dim>3</dim>
				</port>
			</output>
		</layer>
		<layer id="100" name="Multiply_3272" type="Convolution" version="opset1">
			<data strides="1, 1" dilations="1, 1" pads_begin="0, 0" pads_end="0, 0" auto_pad="same_upper" />
			<input>
				<port id="0" precision="FP32">
					<dim>1</dim>
					<dim>256</dim>
					<dim>2</dim>
					<dim>2</dim>
				</port>
				<port id="1" precision="FP32">
					<dim>256</dim>
					<dim>256</dim>
					<dim>3</dim>
					<dim>3</dim>
				</port>
			</input>
			<output>
				<port id="2" precision="FP32">
					<dim>1</dim>
					<dim>256</dim>
					<dim>2</dim>
					<dim>2</dim>
				</port>
			</output>
		</layer>
		<layer id="101" name="Constant_3277_compressed" type="Const" version="opset1">
			<data element_type="f16" shape="1, 256, 1, 1" offset="4380448" size="512" />
			<output>
				<port id="0" precision="FP16">
					<dim>1</dim>
					<dim>256</dim>
					<dim>1</dim>
					<dim>1</dim>
				</port>
			</output>
		</layer>
		<layer id="102" name="Constant_3277" type="Convert" version="opset1">
			<data destination_type="f32" />
			<rt_info>
				<attribute name="decompression" version="0" />
			</rt_info>
			<input>
				<port id="0" precision="FP16">
					<dim>1</dim>
					<dim>256</dim>
					<dim>1</dim>
					<dim>1</dim>
				</port>
			</input>
			<output>
				<port id="1" precision="FP32">
					<dim>1</dim>
					<dim>256</dim>
					<dim>1</dim>
					<dim>1</dim>
				</port>
			</output>
		</layer>
		<layer id="103" name="Transpose_1043" type="Add" version="opset1">
			<data auto_broadcast="numpy" />
			<input>
				<port id="0" precision="FP32">
					<dim>1</dim>
					<dim>256</dim>
					<dim>2</dim>
					<dim>2</dim>
				</port>
				<port id="1" precision="FP32">
					<dim>1</dim>
					<dim>256</dim>
					<dim>1</dim>
					<dim>1</dim>
				</port>
			</input>
			<output>
				<port id="2" precision="FP32">
					<dim>1</dim>
					<dim>256</dim>
					<dim>2</dim>
					<dim>2</dim>
				</port>
			</output>
		</layer>
		<layer id="104" name="Transpose_1045" type="ReLU" version="opset1">
			<input>
				<port id="0" precision="FP32">
					<dim>1</dim>
					<dim>256</dim>
					<dim>2</dim>
					<dim>2</dim>
				</port>
			</input>
			<output>
				<port id="1" precision="FP32">
					<dim>1</dim>
					<dim>256</dim>
					<dim>2</dim>
					<dim>2</dim>
				</port>
			</output>
		</layer>
		<layer id="105" name="Multiply_3379_compressed" type="Const" version="opset1">
			<data element_type="f16" shape="256, 256, 3, 3" offset="4380960" size="1179648" />
			<output>
				<port id="0" precision="FP16">
					<dim>256</dim>
					<dim>256</dim>
					<dim>3</dim>
					<dim>3</dim>
				</port>
			</output>
		</layer>
		<layer id="106" name="Multiply_3379" type="Convert" version="opset1">
			<data destination_type="f32" />
			<rt_info>
				<attribute name="decompression" version="0" />
			</rt_info>
			<input>
				<port id="0" precision="FP16">
					<dim>256</dim>
					<dim>256</dim>
					<dim>3</dim>
					<dim>3</dim>
				</port>
			</input>
			<output>
				<port id="1" precision="FP32">
					<dim>256</dim>
					<dim>256</dim>
					<dim>3</dim>
					<dim>3</dim>
				</port>
			</output>
		</layer>
		<layer id="107" name="Multiply_3279" type="Convolution" version="opset1">
			<data strides="1, 1" dilations="1, 1" pads_begin="0, 0" pads_end="0, 0" auto_pad="same_upper" />
			<input>
				<port id="0" precision="FP32">
					<dim>1</dim>
					<dim>256</dim>
					<dim>2</dim>
					<dim>2</dim>
				</port>
				<port id="1" precision="FP32">
					<dim>256</dim>
					<dim>256</dim>
					<dim>3</dim>
					<dim>3</dim>
				</port>
			</input>
			<output>
				<port id="2" precision="FP32">
					<dim>1</dim>
					<dim>256</dim>
					<dim>2</dim>
					<dim>2</dim>
				</port>
			</output>
		</layer>
		<layer id="108" name="Constant_3284_compressed" type="Const" version="opset1">
			<data element_type="f16" shape="1, 256, 1, 1" offset="5560608" size="512" />
			<output>
				<port id="0" precision="FP16">
					<dim>1</dim>
					<dim>256</dim>
					<dim>1</dim>
					<dim>1</dim>
				</port>
			</output>
		</layer>
		<layer id="109" name="Constant_3284" type="Convert" version="opset1">
			<data destination_type="f32" />
			<rt_info>
				<attribute name="decompression" version="0" />
			</rt_info>
			<input>
				<port id="0" precision="FP16">
					<dim>1</dim>
					<dim>256</dim>
					<dim>1</dim>
					<dim>1</dim>
				</port>
			</input>
			<output>
				<port id="1" precision="FP32">
					<dim>1</dim>
					<dim>256</dim>
					<dim>1</dim>
					<dim>1</dim>
				</port>
			</output>
		</layer>
		<layer id="110" name="Transpose_1061" type="Add" version="opset1">
			<data auto_broadcast="numpy" />
			<input>
				<port id="0" precision="FP32">
					<dim>1</dim>
					<dim>256</dim>
					<dim>2</dim>
					<dim>2</dim>
				</port>
				<port id="1" precision="FP32">
					<dim>1</dim>
					<dim>256</dim>
					<dim>1</dim>
					<dim>1</dim>
				</port>
			</input>
			<output>
				<port id="2" precision="FP32">
					<dim>1</dim>
					<dim>256</dim>
					<dim>2</dim>
					<dim>2</dim>
				</port>
			</output>
		</layer>
		<layer id="111" name="Transpose_1065" type="Add" version="opset1">
			<data auto_broadcast="numpy" />
			<input>
				<port id="0" precision="FP32">
					<dim>1</dim>
					<dim>256</dim>
					<dim>2</dim>
					<dim>2</dim>
				</port>
				<port id="1" precision="FP32">
					<dim>1</dim>
					<dim>256</dim>
					<dim>2</dim>
					<dim>2</dim>
				</port>
			</input>
			<output>
				<port id="2" precision="FP32">
					<dim>1</dim>
					<dim>256</dim>
					<dim>2</dim>
					<dim>2</dim>
				</port>
			</output>
		</layer>
		<layer id="112" name="Transpose_1067" type="ReLU" version="opset1">
			<input>
				<port id="0" precision="FP32">
					<dim>1</dim>
					<dim>256</dim>
					<dim>2</dim>
					<dim>2</dim>
				</port>
			</input>
			<output>
				<port id="1" precision="FP32">
					<dim>1</dim>
					<dim>256</dim>
					<dim>2</dim>
					<dim>2</dim>
				</port>
			</output>
		</layer>
		<layer id="113" name="Multiply_3383_compressed" type="Const" version="opset1">
			<data element_type="f16" shape="512, 256, 3, 3" offset="5561120" size="2359296" />
			<output>
				<port id="0" precision="FP16">
					<dim>512</dim>
					<dim>256</dim>
					<dim>3</dim>
					<dim>3</dim>
				</port>
			</output>
		</layer>
		<layer id="114" name="Multiply_3383" type="Convert" version="opset1">
			<data destination_type="f32" />
			<rt_info>
				<attribute name="decompression" version="0" />
			</rt_info>
			<input>
				<port id="0" precision="FP16">
					<dim>512</dim>
					<dim>256</dim>
					<dim>3</dim>
					<dim>3</dim>
				</port>
			</input>
			<output>
				<port id="1" precision="FP32">
					<dim>512</dim>
					<dim>256</dim>
					<dim>3</dim>
					<dim>3</dim>
				</port>
			</output>
		</layer>
		<layer id="115" name="Multiply_3286" type="Convolution" version="opset1">
			<data strides="2, 2" dilations="1, 1" pads_begin="0, 0" pads_end="0, 0" auto_pad="same_upper" />
			<input>
				<port id="0" precision="FP32">
					<dim>1</dim>
					<dim>256</dim>
					<dim>2</dim>
					<dim>2</dim>
				</port>
				<port id="1" precision="FP32">
					<dim>512</dim>
					<dim>256</dim>
					<dim>3</dim>
					<dim>3</dim>
				</port>
			</input>
			<output>
				<port id="2" precision="FP32">
					<dim>1</dim>
					<dim>512</dim>
					<dim>1</dim>
					<dim>1</dim>
				</port>
			</output>
		</layer>
		<layer id="116" name="Constant_3291_compressed" type="Const" version="opset1">
			<data element_type="f16" shape="1, 512, 1, 1" offset="7920416" size="1024" />
			<output>
				<port id="0" precision="FP16">
					<dim>1</dim>
					<dim>512</dim>
					<dim>1</dim>
					<dim>1</dim>
				</port>
			</output>
		</layer>
		<layer id="117" name="Constant_3291" type="Convert" version="opset1">
			<data destination_type="f32" />
			<rt_info>
				<attribute name="decompression" version="0" />
			</rt_info>
			<input>
				<port id="0" precision="FP16">
					<dim>1</dim>
					<dim>512</dim>
					<dim>1</dim>
					<dim>1</dim>
				</port>
			</input>
			<output>
				<port id="1" precision="FP32">
					<dim>1</dim>
					<dim>512</dim>
					<dim>1</dim>
					<dim>1</dim>
				</port>
			</output>
		</layer>
		<layer id="118" name="Transpose_1083" type="Add" version="opset1">
			<data auto_broadcast="numpy" />
			<input>
				<port id="0" precision="FP32">
					<dim>1</dim>
					<dim>512</dim>
					<dim>1</dim>
					<dim>1</dim>
				</port>
				<port id="1" precision="FP32">
					<dim>1</dim>
					<dim>512</dim>
					<dim>1</dim>
					<dim>1</dim>
				</port>
			</input>
			<output>
				<port id="2" precision="FP32">
					<dim>1</dim>
					<dim>512</dim>
					<dim>1</dim>
					<dim>1</dim>
				</port>
			</output>
		</layer>
		<layer id="119" name="Transpose_1085" type="ReLU" version="opset1">
			<input>
				<port id="0" precision="FP32">
					<dim>1</dim>
					<dim>512</dim>
					<dim>1</dim>
					<dim>1</dim>
				</port>
			</input>
			<output>
				<port id="1" precision="FP32">
					<dim>1</dim>
					<dim>512</dim>
					<dim>1</dim>
					<dim>1</dim>
				</port>
			</output>
		</layer>
		<layer id="120" name="Multiply_3387_compressed" type="Const" version="opset1">
			<data element_type="f16" shape="512, 512, 3, 3" offset="7921440" size="4718592" />
			<output>
				<port id="0" precision="FP16">
					<dim>512</dim>
					<dim>512</dim>
					<dim>3</dim>
					<dim>3</dim>
				</port>
			</output>
		</layer>
		<layer id="121" name="Multiply_3387" type="Convert" version="opset1">
			<data destination_type="f32" />
			<rt_info>
				<attribute name="decompression" version="0" />
			</rt_info>
			<input>
				<port id="0" precision="FP16">
					<dim>512</dim>
					<dim>512</dim>
					<dim>3</dim>
					<dim>3</dim>
				</port>
			</input>
			<output>
				<port id="1" precision="FP32">
					<dim>512</dim>
					<dim>512</dim>
					<dim>3</dim>
					<dim>3</dim>
				</port>
			</output>
		</layer>
		<layer id="122" name="Multiply_3293" type="Convolution" version="opset1">
			<data strides="1, 1" dilations="1, 1" pads_begin="0, 0" pads_end="0, 0" auto_pad="same_upper" />
			<input>
				<port id="0" precision="FP32">
					<dim>1</dim>
					<dim>512</dim>
					<dim>1</dim>
					<dim>1</dim>
				</port>
				<port id="1" precision="FP32">
					<dim>512</dim>
					<dim>512</dim>
					<dim>3</dim>
					<dim>3</dim>
				</port>
			</input>
			<output>
				<port id="2" precision="FP32">
					<dim>1</dim>
					<dim>512</dim>
					<dim>1</dim>
					<dim>1</dim>
				</port>
			</output>
		</layer>
		<layer id="123" name="Constant_3298_compressed" type="Const" version="opset1">
			<data element_type="f16" shape="1, 512, 1, 1" offset="12640032" size="1024" />
			<output>
				<port id="0" precision="FP16">
					<dim>1</dim>
					<dim>512</dim>
					<dim>1</dim>
					<dim>1</dim>
				</port>
			</output>
		</layer>
		<layer id="124" name="Constant_3298" type="Convert" version="opset1">
			<data destination_type="f32" />
			<rt_info>
				<attribute name="decompression" version="0" />
			</rt_info>
			<input>
				<port id="0" precision="FP16">
					<dim>1</dim>
					<dim>512</dim>
					<dim>1</dim>
					<dim>1</dim>
				</port>
			</input>
			<output>
				<port id="1" precision="FP32">
					<dim>1</dim>
					<dim>512</dim>
					<dim>1</dim>
					<dim>1</dim>
				</port>
			</output>
		</layer>
		<layer id="125" name="Transpose_1101" type="Add" version="opset1">
			<data auto_broadcast="numpy" />
			<input>
				<port id="0" precision="FP32">
					<dim>1</dim>
					<dim>512</dim>
					<dim>1</dim>
					<dim>1</dim>
				</port>
				<port id="1" precision="FP32">
					<dim>1</dim>
					<dim>512</dim>
					<dim>1</dim>
					<dim>1</dim>
				</port>
			</input>
			<output>
				<port id="2" precision="FP32">
					<dim>1</dim>
					<dim>512</dim>
					<dim>1</dim>
					<dim>1</dim>
				</port>
			</output>
		</layer>
		<layer id="126" name="Multiply_3391_compressed" type="Const" version="opset1">
			<data element_type="f16" shape="512, 256, 1, 1" offset="12641056" size="262144" />
			<output>
				<port id="0" precision="FP16">
					<dim>512</dim>
					<dim>256</dim>
					<dim>1</dim>
					<dim>1</dim>
				</port>
			</output>
		</layer>
		<layer id="127" name="Multiply_3391" type="Convert" version="opset1">
			<data destination_type="f32" />
			<rt_info>
				<attribute name="decompression" version="0" />
			</rt_info>
			<input>
				<port id="0" precision="FP16">
					<dim>512</dim>
					<dim>256</dim>
					<dim>1</dim>
					<dim>1</dim>
				</port>
			</input>
			<output>
				<port id="1" precision="FP32">
					<dim>512</dim>
					<dim>256</dim>
					<dim>1</dim>
					<dim>1</dim>
				</port>
			</output>
		</layer>
		<layer id="128" name="Multiply_3300" type="Convolution" version="opset1">
			<data strides="2, 2" dilations="1, 1" pads_begin="0, 0" pads_end="0, 0" auto_pad="same_upper" />
			<input>
				<port id="0" precision="FP32">
					<dim>1</dim>
					<dim>256</dim>
					<dim>2</dim>
					<dim>2</dim>
				</port>
				<port id="1" precision="FP32">
					<dim>512</dim>
					<dim>256</dim>
					<dim>1</dim>
					<dim>1</dim>
				</port>
			</input>
			<output>
				<port id="2" precision="FP32">
					<dim>1</dim>
					<dim>512</dim>
					<dim>1</dim>
					<dim>1</dim>
				</port>
			</output>
		</layer>
		<layer id="129" name="Constant_3305_compressed" type="Const" version="opset1">
			<data element_type="f16" shape="1, 512, 1, 1" offset="12903200" size="1024" />
			<output>
				<port id="0" precision="FP16">
					<dim>1</dim>
					<dim>512</dim>
					<dim>1</dim>
					<dim>1</dim>
				</port>
			</output>
		</layer>
		<layer id="130" name="Constant_3305" type="Convert" version="opset1">
			<data destination_type="f32" />
			<rt_info>
				<attribute name="decompression" version="0" />
			</rt_info>
			<input>
				<port id="0" precision="FP16">
					<dim>1</dim>
					<dim>512</dim>
					<dim>1</dim>
					<dim>1</dim>
				</port>
			</input>
			<output>
				<port id="1" precision="FP32">
					<dim>1</dim>
					<dim>512</dim>
					<dim>1</dim>
					<dim>1</dim>
				</port>
			</output>
		</layer>
		<layer id="131" name="Transpose_1117" type="Add" version="opset1">
			<data auto_broadcast="numpy" />
			<input>
				<port id="0" precision="FP32">
					<dim>1</dim>
					<dim>512</dim>
					<dim>1</dim>
					<dim>1</dim>
				</port>
				<port id="1" precision="FP32">
					<dim>1</dim>
					<dim>512</dim>
					<dim>1</dim>
					<dim>1</dim>
				</port>
			</input>
			<output>
				<port id="2" precision="FP32">
					<dim>1</dim>
					<dim>512</dim>
					<dim>1</dim>
					<dim>1</dim>
				</port>
			</output>
		</layer>
		<layer id="132" name="Transpose_1121" type="Add" version="opset1">
			<data auto_broadcast="numpy" />
			<input>
				<port id="0" precision="FP32">
					<dim>1</dim>
					<dim>512</dim>
					<dim>1</dim>
					<dim>1</dim>
				</port>
				<port id="1" precision="FP32">
					<dim>1</dim>
					<dim>512</dim>
					<dim>1</dim>
					<dim>1</dim>
				</port>
			</input>
			<output>
				<port id="2" precision="FP32">
					<dim>1</dim>
					<dim>512</dim>
					<dim>1</dim>
					<dim>1</dim>
				</port>
			</output>
		</layer>
		<layer id="133" name="Transpose_1123" type="ReLU" version="opset1">
			<input>
				<port id="0" precision="FP32">
					<dim>1</dim>
					<dim>512</dim>
					<dim>1</dim>
					<dim>1</dim>
				</port>
			</input>
			<output>
				<port id="1" precision="FP32">
					<dim>1</dim>
					<dim>512</dim>
					<dim>1</dim>
					<dim>1</dim>
				</port>
			</output>
		</layer>
		<layer id="134" name="Multiply_3395_compressed" type="Const" version="opset1">
			<data element_type="f16" shape="512, 512, 3, 3" offset="12904224" size="4718592" />
			<output>
				<port id="0" precision="FP16">
					<dim>512</dim>
					<dim>512</dim>
					<dim>3</dim>
					<dim>3</dim>
				</port>
			</output>
		</layer>
		<layer id="135" name="Multiply_3395" type="Convert" version="opset1">
			<data destination_type="f32" />
			<rt_info>
				<attribute name="decompression" version="0" />
			</rt_info>
			<input>
				<port id="0" precision="FP16">
					<dim>512</dim>
					<dim>512</dim>
					<dim>3</dim>
					<dim>3</dim>
				</port>
			</input>
			<output>
				<port id="1" precision="FP32">
					<dim>512</dim>
					<dim>512</dim>
					<dim>3</dim>
					<dim>3</dim>
				</port>
			</output>
		</layer>
		<layer id="136" name="Multiply_3307" type="Convolution" version="opset1">
			<data strides="1, 1" dilations="1, 1" pads_begin="0, 0" pads_end="0, 0" auto_pad="same_upper" />
			<input>
				<port id="0" precision="FP32">
					<dim>1</dim>
					<dim>512</dim>
					<dim>1</dim>
					<dim>1</dim>
				</port>
				<port id="1" precision="FP32">
					<dim>512</dim>
					<dim>512</dim>
					<dim>3</dim>
					<dim>3</dim>
				</port>
			</input>
			<output>
				<port id="2" precision="FP32">
					<dim>1</dim>
					<dim>512</dim>
					<dim>1</dim>
					<dim>1</dim>
				</port>
			</output>
		</layer>
		<layer id="137" name="Constant_3312_compressed" type="Const" version="opset1">
			<data element_type="f16" shape="1, 512, 1, 1" offset="17622816" size="1024" />
			<output>
				<port id="0" precision="FP16">
					<dim>1</dim>
					<dim>512</dim>
					<dim>1</dim>
					<dim>1</dim>
				</port>
			</output>
		</layer>
		<layer id="138" name="Constant_3312" type="Convert" version="opset1">
			<data destination_type="f32" />
			<rt_info>
				<attribute name="decompression" version="0" />
			</rt_info>
			<input>
				<port id="0" precision="FP16">
					<dim>1</dim>
					<dim>512</dim>
					<dim>1</dim>
					<dim>1</dim>
				</port>
			</input>
			<output>
				<port id="1" precision="FP32">
					<dim>1</dim>
					<dim>512</dim>
					<dim>1</dim>
					<dim>1</dim>
				</port>
			</output>
		</layer>
		<layer id="139" name="Transpose_1139" type="Add" version="opset1">
			<data auto_broadcast="numpy" />
			<input>
				<port id="0" precision="FP32">
					<dim>1</dim>
					<dim>512</dim>
					<dim>1</dim>
					<dim>1</dim>
				</port>
				<port id="1" precision="FP32">
					<dim>1</dim>
					<dim>512</dim>
					<dim>1</dim>
					<dim>1</dim>
				</port>
			</input>
			<output>
				<port id="2" precision="FP32">
					<dim>1</dim>
					<dim>512</dim>
					<dim>1</dim>
					<dim>1</dim>
				</port>
			</output>
		</layer>
		<layer id="140" name="Transpose_1141" type="ReLU" version="opset1">
			<input>
				<port id="0" precision="FP32">
					<dim>1</dim>
					<dim>512</dim>
					<dim>1</dim>
					<dim>1</dim>
				</port>
			</input>
			<output>
				<port id="1" precision="FP32">
					<dim>1</dim>
					<dim>512</dim>
					<dim>1</dim>
					<dim>1</dim>
				</port>
			</output>
		</layer>
		<layer id="141" name="Multiply_3399_compressed" type="Const" version="opset1">
			<data element_type="f16" shape="512, 512, 3, 3" offset="17623840" size="4718592" />
			<output>
				<port id="0" precision="FP16">
					<dim>512</dim>
					<dim>512</dim>
					<dim>3</dim>
					<dim>3</dim>
				</port>
			</output>
		</layer>
		<layer id="142" name="Multiply_3399" type="Convert" version="opset1">
			<data destination_type="f32" />
			<rt_info>
				<attribute name="decompression" version="0" />
			</rt_info>
			<input>
				<port id="0" precision="FP16">
					<dim>512</dim>
					<dim>512</dim>
					<dim>3</dim>
					<dim>3</dim>
				</port>
			</input>
			<output>
				<port id="1" precision="FP32">
					<dim>512</dim>
					<dim>512</dim>
					<dim>3</dim>
					<dim>3</dim>
				</port>
			</output>
		</layer>
		<layer id="143" name="Multiply_3314" type="Convolution" version="opset1">
			<data strides="1, 1" dilations="1, 1" pads_begin="0, 0" pads_end="0, 0" auto_pad="same_upper" />
			<input>
				<port id="0" precision="FP32">
					<dim>1</dim>
					<dim>512</dim>
					<dim>1</dim>
					<dim>1</dim>
				</port>
				<port id="1" precision="FP32">
					<dim>512</dim>
					<dim>512</dim>
					<dim>3</dim>
					<dim>3</dim>
				</port>
			</input>
			<output>
				<port id="2" precision="FP32">
					<dim>1</dim>
					<dim>512</dim>
					<dim>1</dim>
					<dim>1</dim>
				</port>
			</output>
		</layer>
		<layer id="144" name="Constant_3319_compressed" type="Const" version="opset1">
			<data element_type="f16" shape="1, 512, 1, 1" offset="22342432" size="1024" />
			<output>
				<port id="0" precision="FP16">
					<dim>1</dim>
					<dim>512</dim>
					<dim>1</dim>
					<dim>1</dim>
				</port>
			</output>
		</layer>
		<layer id="145" name="Constant_3319" type="Convert" version="opset1">
			<data destination_type="f32" />
			<rt_info>
				<attribute name="decompression" version="0" />
			</rt_info>
			<input>
				<port id="0" precision="FP16">
					<dim>1</dim>
					<dim>512</dim>
					<dim>1</dim>
					<dim>1</dim>
				</port>
			</input>
			<output>
				<port id="1" precision="FP32">
					<dim>1</dim>
					<dim>512</dim>
					<dim>1</dim>
					<dim>1</dim>
				</port>
			</output>
		</layer>
		<layer id="146" name="Transpose_1157" type="Add" version="opset1">
			<data auto_broadcast="numpy" />
			<input>
				<port id="0" precision="FP32">
					<dim>1</dim>
					<dim>512</dim>
					<dim>1</dim>
					<dim>1</dim>
				</port>
				<port id="1" precision="FP32">
					<dim>1</dim>
					<dim>512</dim>
					<dim>1</dim>
					<dim>1</dim>
				</port>
			</input>
			<output>
				<port id="2" precision="FP32">
					<dim>1</dim>
					<dim>512</dim>
					<dim>1</dim>
					<dim>1</dim>
				</port>
			</output>
		</layer>
		<layer id="147" name="Transpose_1161" type="Add" version="opset1">
			<data auto_broadcast="numpy" />
			<input>
				<port id="0" precision="FP32">
					<dim>1</dim>
					<dim>512</dim>
					<dim>1</dim>
					<dim>1</dim>
				</port>
				<port id="1" precision="FP32">
					<dim>1</dim>
					<dim>512</dim>
					<dim>1</dim>
					<dim>1</dim>
				</port>
			</input>
			<output>
				<port id="2" precision="FP32">
					<dim>1</dim>
					<dim>512</dim>
					<dim>1</dim>
					<dim>1</dim>
				</port>
			</output>
		</layer>
		<layer id="148" name="Transpose_1163" type="ReLU" version="opset1">
			<input>
				<port id="0" precision="FP32">
					<dim>1</dim>
					<dim>512</dim>
					<dim>1</dim>
					<dim>1</dim>
				</port>
			</input>
			<output>
				<port id="1" precision="FP32">
					<dim>1</dim>
					<dim>512</dim>
					<dim>1</dim>
					<dim>1</dim>
				</port>
			</output>
		</layer>
		<layer id="149" name="Constant_1165" type="Const" version="opset1">
			<data element_type="i32" shape="2" offset="22343456" size="8" />
			<output>
				<port id="0" precision="I32">
					<dim>2</dim>
				</port>
			</output>
		</layer>
		<layer id="150" name="Transpose_1167" type="ReduceMean" version="opset1">
			<data keep_dims="false" />
			<input>
				<port id="0" precision="FP32">
					<dim>1</dim>
					<dim>512</dim>
					<dim>1</dim>
					<dim>1</dim>
				</port>
				<port id="1" precision="I32">
					<dim>2</dim>
				</port>
			</input>
			<output>
				<port id="2" precision="FP32" names="res_net18_1/global_average_pooling2d_1/Mean:0">
					<dim>1</dim>
					<dim>512</dim>
				</port>
			</output>
		</layer>
		<layer id="151" name="Concat_1595" type="Const" version="opset1">
			<data element_type="i64" shape="2" offset="22343464" size="16" />
			<rt_info>
				<attribute name="precise" version="0" />
			</rt_info>
			<output>
				<port id="0" precision="I64">
					<dim>2</dim>
				</port>
			</output>
		</layer>
		<layer id="152" name="res_net18_1/flatten_1/Reshape" type="Reshape" version="opset1">
			<data special_zero="false" />
			<input>
				<port id="0" precision="FP32">
					<dim>1</dim>
					<dim>512</dim>
				</port>
				<port id="1" precision="I64">
					<dim>2</dim>
				</port>
			</input>
			<output>
				<port id="2" precision="FP32" names="res_net18_1/flatten_1/Reshape:0">
					<dim>1</dim>
					<dim>512</dim>
				</port>
			</output>
		</layer>
		<layer id="153" name="Transpose_3177_compressed" type="Const" version="opset1">
			<data element_type="f16" shape="10, 512" offset="22343480" size="10240" />
			<output>
				<port id="0" precision="FP16">
					<dim>10</dim>
					<dim>512</dim>
				</port>
			</output>
		</layer>
		<layer id="154" name="Transpose_3177" type="Convert" version="opset1">
			<data destination_type="f32" />
			<rt_info>
				<attribute name="decompression" version="0" />
			</rt_info>
			<input>
				<port id="0" precision="FP16">
					<dim>10</dim>
					<dim>512</dim>
				</port>
			</input>
			<output>
				<port id="1" precision="FP32">
					<dim>10</dim>
					<dim>512</dim>
				</port>
			</output>
		</layer>
		<layer id="155" name="res_net18_1/dense_1/MatMul" type="MatMul" version="opset1">
			<data transpose_a="false" transpose_b="true" />
			<input>
				<port id="0" precision="FP32">
					<dim>1</dim>
					<dim>512</dim>
				</port>
				<port id="1" precision="FP32">
					<dim>10</dim>
					<dim>512</dim>
				</port>
			</input>
			<output>
				<port id="2" precision="FP32" names="res_net18_1/dense_1/MatMul:0">
					<dim>1</dim>
					<dim>10</dim>
				</port>
			</output>
		</layer>
		<layer id="156" name="Constant_3471_compressed" type="Const" version="opset1">
			<data element_type="f16" shape="1, 10" offset="22353720" size="20" />
			<output>
				<port id="0" precision="FP16">
					<dim>1</dim>
					<dim>10</dim>
				</port>
			</output>
		</layer>
		<layer id="157" name="Constant_3471" type="Convert" version="opset1">
			<data destination_type="f32" />
			<rt_info>
				<attribute name="decompression" version="0" />
			</rt_info>
			<input>
				<port id="0" precision="FP16">
					<dim>1</dim>
					<dim>10</dim>
				</port>
			</input>
			<output>
				<port id="1" precision="FP32">
					<dim>1</dim>
					<dim>10</dim>
				</port>
			</output>
		</layer>
		<layer id="158" name="res_net18_1/dense_1/Add" type="Add" version="opset1">
			<data auto_broadcast="numpy" />
			<input>
				<port id="0" precision="FP32">
					<dim>1</dim>
					<dim>10</dim>
				</port>
				<port id="1" precision="FP32">
					<dim>1</dim>
					<dim>10</dim>
				</port>
			</input>
			<output>
				<port id="2" precision="FP32" names="res_net18_1/dense_1/Add:0">
					<dim>1</dim>
					<dim>10</dim>
				</port>
			</output>
		</layer>
		<layer id="159" name="res_net18_1/dense_1/Softmax" type="SoftMax" version="opset8">
			<data axis="-1" />
			<input>
				<port id="0" precision="FP32">
					<dim>1</dim>
					<dim>10</dim>
				</port>
			</input>
			<output>
				<port id="1" precision="FP32" names="Identity:0,res_net18_1/dense_1/Softmax:0">
					<dim>1</dim>
					<dim>10</dim>
				</port>
			</output>
		</layer>
		<layer id="160" name="Identity:0" type="Result" version="opset1">
			<input>
				<port id="0" precision="FP32">
					<dim>1</dim>
					<dim>10</dim>
				</port>
			</input>
		</layer>
	</layers>
	<edges>
		<edge from-layer="0" from-port="0" to-layer="2" to-port="0" />
		<edge from-layer="1" from-port="0" to-layer="2" to-port="1" />
		<edge from-layer="2" from-port="2" to-layer="5" to-port="0" />
		<edge from-layer="3" from-port="0" to-layer="4" to-port="0" />
		<edge from-layer="4" from-port="1" to-layer="5" to-port="1" />
		<edge from-layer="5" from-port="2" to-layer="8" to-port="0" />
		<edge from-layer="6" from-port="0" to-layer="7" to-port="0" />
		<edge from-layer="7" from-port="1" to-layer="8" to-port="1" />
		<edge from-layer="8" from-port="2" to-layer="9" to-port="0" />
		<edge from-layer="9" from-port="1" to-layer="10" to-port="0" />
		<edge from-layer="10" from-port="1" to-layer="24" to-port="1" />
		<edge from-layer="10" from-port="1" to-layer="13" to-port="0" />
		<edge from-layer="11" from-port="0" to-layer="12" to-port="0" />
		<edge from-layer="12" from-port="1" to-layer="13" to-port="1" />
		<edge from-layer="13" from-port="2" to-layer="16" to-port="0" />
		<edge from-layer="14" from-port="0" to-layer="15" to-port="0" />
		<edge from-layer="15" from-port="1" to-layer="16" to-port="1" />
		<edge from-layer="16" from-port="2" to-layer="17" to-port="0" />
		<edge from-layer="17" from-port="1" to-layer="20" to-port="0" />
		<edge from-layer="18" from-port="0" to-layer="19" to-port="0" />
		<edge from-layer="19" from-port="1" to-layer="20" to-port="1" />
		<edge from-layer="20" from-port="2" to-layer="23" to-port="0" />
		<edge from-layer="21" from-port="0" to-layer="22" to-port="0" />
		<edge from-layer="22" from-port="1" to-layer="23" to-port="1" />
		<edge from-layer="23" from-port="2" to-layer="24" to-port="0" />
		<edge from-layer="24" from-port="2" to-layer="25" to-port="0" />
		<edge from-layer="25" from-port="1" to-layer="39" to-port="1" />
		<edge from-layer="25" from-port="1" to-layer="28" to-port="0" />
		<edge from-layer="26" from-port="0" to-layer="27" to-port="0" />
		<edge from-layer="27" from-port="1" to-layer="28" to-port="1" />
		<edge from-layer="28" from-port="2" to-layer="31" to-port="0" />
		<edge from-layer="29" from-port="0" to-layer="30" to-port="0" />
		<edge from-layer="30" from-port="1" to-layer="31" to-port="1" />
		<edge from-layer="31" from-port="2" to-layer="32" to-port="0" />
		<edge from-layer="32" from-port="1" to-layer="35" to-port="0" />
		<edge from-layer="33" from-port="0" to-layer="34" to-port="0" />
		<edge from-layer="34" from-port="1" to-layer="35" to-port="1" />
		<edge from-layer="35" from-port="2" to-layer="38" to-port="0" />
		<edge from-layer="36" from-port="0" to-layer="37" to-port="0" />
		<edge from-layer="37" from-port="1" to-layer="38" to-port="1" />
		<edge from-layer="38" from-port="2" to-layer="39" to-port="0" />
		<edge from-layer="39" from-port="2" to-layer="40" to-port="0" />
		<edge from-layer="40" from-port="1" to-layer="56" to-port="0" />
		<edge from-layer="40" from-port="1" to-layer="43" to-port="0" />
		<edge from-layer="41" from-port="0" to-layer="42" to-port="0" />
		<edge from-layer="42" from-port="1" to-layer="43" to-port="1" />
		<edge from-layer="43" from-port="2" to-layer="46" to-port="0" />
		<edge from-layer="44" from-port="0" to-layer="45" to-port="0" />
		<edge from-layer="45" from-port="1" to-layer="46" to-port="1" />
		<edge from-layer="46" from-port="2" to-layer="47" to-port="0" />
		<edge from-layer="47" from-port="1" to-layer="50" to-port="0" />
		<edge from-layer="48" from-port="0" to-layer="49" to-port="0" />
		<edge from-layer="49" from-port="1" to-layer="50" to-port="1" />
		<edge from-layer="50" from-port="2" to-layer="53" to-port="0" />
		<edge from-layer="51" from-port="0" to-layer="52" to-port="0" />
		<edge from-layer="52" from-port="1" to-layer="53" to-port="1" />
		<edge from-layer="53" from-port="2" to-layer="60" to-port="0" />
		<edge from-layer="54" from-port="0" to-layer="55" to-port="0" />
		<edge from-layer="55" from-port="1" to-layer="56" to-port="1" />
		<edge from-layer="56" from-port="2" to-layer="59" to-port="0" />
		<edge from-layer="57" from-port="0" to-layer="58" to-port="0" />
		<edge from-layer="58" from-port="1" to-layer="59" to-port="1" />
		<edge from-layer="59" from-port="2" to-layer="60" to-port="1" />
		<edge from-layer="60" from-port="2" to-layer="61" to-port="0" />
		<edge from-layer="61" from-port="1" to-layer="64" to-port="0" />
		<edge from-layer="61" from-port="1" to-layer="75" to-port="1" />
		<edge from-layer="62" from-port="0" to-layer="63" to-port="0" />
		<edge from-layer="63" from-port="1" to-layer="64" to-port="1" />
		<edge from-layer="64" from-port="2" to-layer="67" to-port="0" />
		<edge from-layer="65" from-port="0" to-layer="66" to-port="0" />
		<edge from-layer="66" from-port="1" to-layer="67" to-port="1" />
		<edge from-layer="67" from-port="2" to-layer="68" to-port="0" />
		<edge from-layer="68" from-port="1" to-layer="71" to-port="0" />
		<edge from-layer="69" from-port="0" to-layer="70" to-port="0" />
		<edge from-layer="70" from-port="1" to-layer="71" to-port="1" />
		<edge from-layer="71" from-port="2" to-layer="74" to-port="0" />
		<edge from-layer="72" from-port="0" to-layer="73" to-port="0" />
		<edge from-layer="73" from-port="1" to-layer="74" to-port="1" />
		<edge from-layer="74" from-port="2" to-layer="75" to-port="0" />
		<edge from-layer="75" from-port="2" to-layer="76" to-port="0" />
		<edge from-layer="76" from-port="1" to-layer="79" to-port="0" />
		<edge from-layer="76" from-port="1" to-layer="92" to-port="0" />
		<edge from-layer="77" from-port="0" to-layer="78" to-port="0" />
		<edge from-layer="78" from-port="1" to-layer="79" to-port="1" />
		<edge from-layer="79" from-port="2" to-layer="82" to-port="0" />
		<edge from-layer="80" from-port="0" to-layer="81" to-port="0" />
		<edge from-layer="81" from-port="1" to-layer="82" to-port="1" />
		<edge from-layer="82" from-port="2" to-layer="83" to-port="0" />
		<edge from-layer="83" from-port="1" to-layer="86" to-port="0" />
		<edge from-layer="84" from-port="0" to-layer="85" to-port="0" />
		<edge from-layer="85" from-port="1" to-layer="86" to-port="1" />
		<edge from-layer="86" from-port="2" to-layer="89" to-port="0" />
		<edge from-layer="87" from-port="0" to-layer="88" to-port="0" />
		<edge from-layer="88" from-port="1" to-layer="89" to-port="1" />
		<edge from-layer="89" from-port="2" to-layer="96" to-port="0" />
		<edge from-layer="90" from-port="0" to-layer="91" to-port="0" />
		<edge from-layer="91" from-port="1" to-layer="92" to-port="1" />
		<edge from-layer="92" from-port="2" to-layer="95" to-port="0" />
		<edge from-layer="93" from-port="0" to-layer="94" to-port="0" />
		<edge from-layer="94" from-port="1" to-layer="95" to-port="1" />
		<edge from-layer="95" from-port="2" to-layer="96" to-port="1" />
		<edge from-layer="96" from-port="2" to-layer="97" to-port="0" />
		<edge from-layer="97" from-port="1" to-layer="100" to-port="0" />
		<edge from-layer="97" from-port="1" to-layer="111" to-port="1" />
		<edge from-layer="98" from-port="0" to-layer="99" to-port="0" />
		<edge from-layer="99" from-port="1" to-layer="100" to-port="1" />
		<edge from-layer="100" from-port="2" to-layer="103" to-port="0" />
		<edge from-layer="101" from-port="0" to-layer="102" to-port="0" />
		<edge from-layer="102" from-port="1" to-layer="103" to-port="1" />
		<edge from-layer="103" from-port="2" to-layer="104" to-port="0" />
		<edge from-layer="104" from-port="1" to-layer="107" to-port="0" />
		<edge from-layer="105" from-port="0" to-layer="106" to-port="0" />
		<edge from-layer="106" from-port="1" to-layer="107" to-port="1" />
		<edge from-layer="107" from-port="2" to-layer="110" to-port="0" />
		<edge from-layer="108" from-port="0" to-layer="109" to-port="0" />
		<edge from-layer="109" from-port="1" to-layer="110" to-port="1" />
		<edge from-layer="110" from-port="2" to-layer="111" to-port="0" />
		<edge from-layer="111" from-port="2" to-layer="112" to-port="0" />
		<edge from-layer="112" from-port="1" to-layer="115" to-port="0" />
		<edge from-layer="112" from-port="1" to-layer="128" to-port="0" />
		<edge from-layer="113" from-port="0" to-layer="114" to-port="0" />
		<edge from-layer="114" from-port="1" to-layer="115" to-port="1" />
		<edge from-layer="115" from-port="2" to-layer="118" to-port="0" />
		<edge from-layer="116" from-port="0" to-layer="117" to-port="0" />
		<edge from-layer="117" from-port="1" to-layer="118" to-port="1" />
		<edge from-layer="118" from-port="2" to-layer="119" to-port="0" />
		<edge from-layer="119" from-port="1" to-layer="122" to-port="0" />
		<edge from-layer="120" from-port="0" to-layer="121" to-port="0" />
		<edge from-layer="121" from-port="1" to-layer="122" to-port="1" />
		<edge from-layer="122" from-port="2" to-layer="125" to-port="0" />
		<edge from-layer="123" from-port="0" to-layer="124" to-port="0" />
		<edge from-layer="124" from-port="1" to-layer="125" to-port="1" />
		<edge from-layer="125" from-port="2" to-layer="132" to-port="0" />
		<edge from-layer="126" from-port="0" to-layer="127" to-port="0" />
		<edge from-layer="127" from-port="1" to-layer="128" to-port="1" />
		<edge from-layer="128" from-port="2" to-layer="131" to-port="0" />
		<edge from-layer="129" from-port="0" to-layer="130" to-port="0" />
		<edge from-layer="130" from-port="1" to-layer="131" to-port="1" />
		<edge from-layer="131" from-port="2" to-layer="132" to-port="1" />
		<edge from-layer="132" from-port="2" to-layer="133" to-port="0" />
		<edge from-layer="133" from-port="1" to-layer="136" to-port="0" />
		<edge from-layer="133" from-port="1" to-layer="147" to-port="1" />
		<edge from-layer="134" from-port="0" to-layer="135" to-port="0" />
		<edge from-layer="135" from-port="1" to-layer="136" to-port="1" />
		<edge from-layer="136" from-port="2" to-layer="139" to-port="0" />
		<edge from-layer="137" from-port="0" to-layer="138" to-port="0" />
		<edge from-layer="138" from-port="1" to-layer="139" to-port="1" />
		<edge from-layer="139" from-port="2" to-layer="140" to-port="0" />
		<edge from-layer="140" from-port="1" to-layer="143" to-port="0" />
		<edge from-layer="141" from-port="0" to-layer="142" to-port="0" />
		<edge from-layer="142" from-port="1" to-layer="143" to-port="1" />
		<edge from-layer="143" from-port="2" to-layer="146" to-port="0" />
		<edge from-layer="144" from-port="0" to-layer="145" to-port="0" />
		<edge from-layer="145" from-port="1" to-layer="146" to-port="1" />
		<edge from-layer="146" from-port="2" to-layer="147" to-port="0" />
		<edge from-layer="147" from-port="2" to-layer="148" to-port="0" />
		<edge from-layer="148" from-port="1" to-layer="150" to-port="0" />
		<edge from-layer="149" from-port="0" to-layer="150" to-port="1" />
		<edge from-layer="150" from-port="2" to-layer="152" to-port="0" />
		<edge from-layer="151" from-port="0" to-layer="152" to-port="1" />
		<edge from-layer="152" from-port="2" to-layer="155" to-port="0" />
		<edge from-layer="153" from-port="0" to-layer="154" to-port="0" />
		<edge from-layer="154" from-port="1" to-layer="155" to-port="1" />
		<edge from-layer="155" from-port="2" to-layer="158" to-port="0" />
		<edge from-layer="156" from-port="0" to-layer="157" to-port="0" />
		<edge from-layer="157" from-port="1" to-layer="158" to-port="1" />
		<edge from-layer="158" from-port="2" to-layer="159" to-port="0" />
		<edge from-layer="159" from-port="1" to-layer="160" to-port="0" />
	</edges>
	<rt_info>
		<Runtime_version value="2024.4.0-16579-c3152d32c9c-releases/2024/4" />
		<conversion_parameters>
			<framework value="tf" />
			<is_python_object value="True" />
		</conversion_parameters>
	</rt_info>
</net>
